…
Model: "resnet50_dropout"
_____________________________________________________________________________________________________________
 Layer (type)                Output Shape                 Param #   Connected to                  Trainable  
=============================================================================================================
 input_1 (InputLayer)        [(None, 224, 224, 3)]        0         []                            Y          
                                                                                                             
 conv1_pad (ZeroPadding2D)   (None, 230, 230, 3)          0         ['input_1[0][0]']             Y          
                                                                                                             
 conv1 (Conv2D)              (None, 112, 112, 64)         9408      ['conv1_pad[0][0]']           Y          
                                                                                                             
 bn_conv1 (BatchNormalizati  (None, 112, 112, 64)         256       ['conv1[0][0]']               Y          
 on)                                                                                                         
                                                                                                             
 activation (Activation)     (None, 112, 112, 64)         0         ['bn_conv1[0][0]']            Y          
                                                                                                             
 dropout (Dropout)           (None, 112, 112, 64)         0         ['activation[0][0]']          Y          
                                                                                                             
 max_pooling2d (MaxPooling2  (None, 56, 56, 64)           0         ['dropout[0][0]']             Y          
 D)                                                                                                          
                                                                                                             
 res2a_branch2a (Conv2D)     (None, 56, 56, 64)           4096      ['max_pooling2d[0][0]']       Y          
                                                                                                             
 bn2a_branch2a (BatchNormal  (None, 56, 56, 64)           256       ['res2a_branch2a[0][0]']      Y          
 ization)                                                                                                    
                                                                                                             
 activation_1 (Activation)   (None, 56, 56, 64)           0         ['bn2a_branch2a[0][0]']       Y          
                                                                                                             
 dropout_1 (Dropout)         (None, 56, 56, 64)           0         ['activation_1[0][0]']        Y          
                                                                                                             
 res2a_branch2b (Conv2D)     (None, 56, 56, 64)           36864     ['dropout_1[0][0]']           Y          
                                                                                                             
 bn2a_branch2b (BatchNormal  (None, 56, 56, 64)           256       ['res2a_branch2b[0][0]']      Y          
 ization)                                                                                                    
                                                                                                             
 activation_2 (Activation)   (None, 56, 56, 64)           0         ['bn2a_branch2b[0][0]']       Y          
                                                                                                             
 dropout_2 (Dropout)         (None, 56, 56, 64)           0         ['activation_2[0][0]']        Y          
                                                                                                             
 res2a_branch1 (Conv2D)      (None, 56, 56, 256)          16384     ['max_pooling2d[0][0]']       Y          
                                                                                                             
 res2a_branch2c (Conv2D)     (None, 56, 56, 256)          16384     ['dropout_2[0][0]']           Y          
                                                                                                             
 bn2a_branch1 (BatchNormali  (None, 56, 56, 256)          1024      ['res2a_branch1[0][0]']       Y          
 zation)                                                                                                     
                                                                                                             
 bn2a_branch2c (BatchNormal  (None, 56, 56, 256)          1024      ['res2a_branch2c[0][0]']      Y          
 ization)                                                                                                    
                                                                                                             
 dropout_3 (Dropout)         (None, 56, 56, 256)          0         ['bn2a_branch1[0][0]']        Y          
                                                                                                             
 add (Add)                   (None, 56, 56, 256)          0         ['bn2a_branch2c[0][0]',       Y          
                                                                     'dropout_3[0][0]']                      
                                                                                                             
 activation_3 (Activation)   (None, 56, 56, 256)          0         ['add[0][0]']                 Y          
                                                                                                             
 res2b_branch2a (Conv2D)     (None, 56, 56, 64)           16384     ['activation_3[0][0]']        Y          
                                                                                                             
 bn2b_branch2a (BatchNormal  (None, 56, 56, 64)           256       ['res2b_branch2a[0][0]']      Y          
 ization)                                                                                                    
                                                                                                             
 activation_4 (Activation)   (None, 56, 56, 64)           0         ['bn2b_branch2a[0][0]']       Y          
                                                                                                             
 dropout_4 (Dropout)         (None, 56, 56, 64)           0         ['activation_4[0][0]']        Y          
                                                                                                             
 res2b_branch2b (Conv2D)     (None, 56, 56, 64)           36864     ['dropout_4[0][0]']           Y          
                                                                                                             
 bn2b_branch2b (BatchNormal  (None, 56, 56, 64)           256       ['res2b_branch2b[0][0]']      Y          
 ization)                                                                                                    
                                                                                                             
 activation_5 (Activation)   (None, 56, 56, 64)           0         ['bn2b_branch2b[0][0]']       Y          
                                                                                                             
 dropout_5 (Dropout)         (None, 56, 56, 64)           0         ['activation_5[0][0]']        Y          
                                                                                                             
 res2b_branch2c (Conv2D)     (None, 56, 56, 256)          16384     ['dropout_5[0][0]']           Y          
                                                                                                             
 bn2b_branch2c (BatchNormal  (None, 56, 56, 256)          1024      ['res2b_branch2c[0][0]']      Y          
 ization)                                                                                                    
                                                                                                             
 add_1 (Add)                 (None, 56, 56, 256)          0         ['bn2b_branch2c[0][0]',       Y          
                                                                     'activation_3[0][0]']                   
                                                                                                             
 activation_6 (Activation)   (None, 56, 56, 256)          0         ['add_1[0][0]']               Y          
                                                                                                             
 res2c_branch2a (Conv2D)     (None, 56, 56, 64)           16384     ['activation_6[0][0]']        Y          
                                                                                                             
 bn2c_branch2a (BatchNormal  (None, 56, 56, 64)           256       ['res2c_branch2a[0][0]']      Y          
 ization)                                                                                                    
                                                                                                             
 activation_7 (Activation)   (None, 56, 56, 64)           0         ['bn2c_branch2a[0][0]']       Y          
                                                                                                             
 dropout_6 (Dropout)         (None, 56, 56, 64)           0         ['activation_7[0][0]']        Y          
                                                                                                             
 res2c_branch2b (Conv2D)     (None, 56, 56, 64)           36864     ['dropout_6[0][0]']           Y          
                                                                                                             
 bn2c_branch2b (BatchNormal  (None, 56, 56, 64)           256       ['res2c_branch2b[0][0]']      Y          
 ization)                                                                                                    
                                                                                                             
 activation_8 (Activation)   (None, 56, 56, 64)           0         ['bn2c_branch2b[0][0]']       Y          
                                                                                                             
 dropout_7 (Dropout)         (None, 56, 56, 64)           0         ['activation_8[0][0]']        Y          
                                                                                                             
 res2c_branch2c (Conv2D)     (None, 56, 56, 256)          16384     ['dropout_7[0][0]']           Y          
                                                                                                             
 bn2c_branch2c (BatchNormal  (None, 56, 56, 256)          1024      ['res2c_branch2c[0][0]']      Y          
 ization)                                                                                                    
                                                                                                             
 add_2 (Add)                 (None, 56, 56, 256)          0         ['bn2c_branch2c[0][0]',       Y          
                                                                     'activation_6[0][0]']                   
                                                                                                             
 activation_9 (Activation)   (None, 56, 56, 256)          0         ['add_2[0][0]']               Y          
                                                                                                             
 res3a_branch2a (Conv2D)     (None, 56, 56, 128)          32768     ['activation_9[0][0]']        Y          
                                                                                                             
 bn3a_branch2a (BatchNormal  (None, 56, 56, 128)          512       ['res3a_branch2a[0][0]']      Y          
 ization)                                                                                                    
                                                                                                             
 activation_10 (Activation)  (None, 56, 56, 128)          0         ['bn3a_branch2a[0][0]']       Y          
                                                                                                             
 dropout_8 (Dropout)         (None, 56, 56, 128)          0         ['activation_10[0][0]']       Y          
                                                                                                             
 res3a_branch2b (Conv2D)     (None, 28, 28, 128)          147456    ['dropout_8[0][0]']           Y          
                                                                                                             
 bn3a_branch2b (BatchNormal  (None, 28, 28, 128)          512       ['res3a_branch2b[0][0]']      Y          
 ization)                                                                                                    
                                                                                                             
 activation_11 (Activation)  (None, 28, 28, 128)          0         ['bn3a_branch2b[0][0]']       Y          
                                                                                                             
 dropout_9 (Dropout)         (None, 28, 28, 128)          0         ['activation_11[0][0]']       Y          
                                                                                                             
 res3a_branch1 (Conv2D)      (None, 28, 28, 512)          131072    ['activation_9[0][0]']        Y          
                                                                                                             
 res3a_branch2c (Conv2D)     (None, 28, 28, 512)          65536     ['dropout_9[0][0]']           Y          
                                                                                                             
 bn3a_branch1 (BatchNormali  (None, 28, 28, 512)          2048      ['res3a_branch1[0][0]']       Y          
 zation)                                                                                                     
                                                                                                             
 bn3a_branch2c (BatchNormal  (None, 28, 28, 512)          2048      ['res3a_branch2c[0][0]']      Y          
 ization)                                                                                                    
                                                                                                             
 dropout_10 (Dropout)        (None, 28, 28, 512)          0         ['bn3a_branch1[0][0]']        Y          
                                                                                                             
 add_3 (Add)                 (None, 28, 28, 512)          0         ['bn3a_branch2c[0][0]',       Y          
                                                                     'dropout_10[0][0]']                     
                                                                                                             
 activation_12 (Activation)  (None, 28, 28, 512)          0         ['add_3[0][0]']               Y          
                                                                                                             
 res3b_branch2a (Conv2D)     (None, 28, 28, 128)          65536     ['activation_12[0][0]']       Y          
                                                                                                             
 bn3b_branch2a (BatchNormal  (None, 28, 28, 128)          512       ['res3b_branch2a[0][0]']      Y          
 ization)                                                                                                    
                                                                                                             
 activation_13 (Activation)  (None, 28, 28, 128)          0         ['bn3b_branch2a[0][0]']       Y          
                                                                                                             
 dropout_11 (Dropout)        (None, 28, 28, 128)          0         ['activation_13[0][0]']       Y          
                                                                                                             
 res3b_branch2b (Conv2D)     (None, 28, 28, 128)          147456    ['dropout_11[0][0]']          Y          
                                                                                                             
 bn3b_branch2b (BatchNormal  (None, 28, 28, 128)          512       ['res3b_branch2b[0][0]']      Y          
 ization)                                                                                                    
                                                                                                             
 activation_14 (Activation)  (None, 28, 28, 128)          0         ['bn3b_branch2b[0][0]']       Y          
                                                                                                             
 dropout_12 (Dropout)        (None, 28, 28, 128)          0         ['activation_14[0][0]']       Y          
                                                                                                             
 res3b_branch2c (Conv2D)     (None, 28, 28, 512)          65536     ['dropout_12[0][0]']          Y          
                                                                                                             
 bn3b_branch2c (BatchNormal  (None, 28, 28, 512)          2048      ['res3b_branch2c[0][0]']      Y          
 ization)                                                                                                    
                                                                                                             
 add_4 (Add)                 (None, 28, 28, 512)          0         ['bn3b_branch2c[0][0]',       Y          
                                                                     'activation_12[0][0]']                  
                                                                                                             
 activation_15 (Activation)  (None, 28, 28, 512)          0         ['add_4[0][0]']               Y          
                                                                                                             
 res3c_branch2a (Conv2D)     (None, 28, 28, 128)          65536     ['activation_15[0][0]']       Y          
                                                                                                             
 bn3c_branch2a (BatchNormal  (None, 28, 28, 128)          512       ['res3c_branch2a[0][0]']      Y          
 ization)                                                                                                    
                                                                                                             
 activation_16 (Activation)  (None, 28, 28, 128)          0         ['bn3c_branch2a[0][0]']       Y          
                                                                                                             
 dropout_13 (Dropout)        (None, 28, 28, 128)          0         ['activation_16[0][0]']       Y          
                                                                                                             
 res3c_branch2b (Conv2D)     (None, 28, 28, 128)          147456    ['dropout_13[0][0]']          Y          
                                                                                                             
 bn3c_branch2b (BatchNormal  (None, 28, 28, 128)          512       ['res3c_branch2b[0][0]']      Y          
 ization)                                                                                                    
                                                                                                             
 activation_17 (Activation)  (None, 28, 28, 128)          0         ['bn3c_branch2b[0][0]']       Y          
                                                                                                             
 dropout_14 (Dropout)        (None, 28, 28, 128)          0         ['activation_17[0][0]']       Y          
                                                                                                             
 res3c_branch2c (Conv2D)     (None, 28, 28, 512)          65536     ['dropout_14[0][0]']          Y          
                                                                                                             
 bn3c_branch2c (BatchNormal  (None, 28, 28, 512)          2048      ['res3c_branch2c[0][0]']      Y          
 ization)                                                                                                    
                                                                                                             
 add_5 (Add)                 (None, 28, 28, 512)          0         ['bn3c_branch2c[0][0]',       Y          
                                                                     'activation_15[0][0]']                  
                                                                                                             
 activation_18 (Activation)  (None, 28, 28, 512)          0         ['add_5[0][0]']               Y          
                                                                                                             
 res3d_branch2a (Conv2D)     (None, 28, 28, 128)          65536     ['activation_18[0][0]']       Y          
                                                                                                             
 bn3d_branch2a (BatchNormal  (None, 28, 28, 128)          512       ['res3d_branch2a[0][0]']      Y          
 ization)                                                                                                    
                                                                                                             
 activation_19 (Activation)  (None, 28, 28, 128)          0         ['bn3d_branch2a[0][0]']       Y          
                                                                                                             
 dropout_15 (Dropout)        (None, 28, 28, 128)          0         ['activation_19[0][0]']       Y          
                                                                                                             
 res3d_branch2b (Conv2D)     (None, 28, 28, 128)          147456    ['dropout_15[0][0]']          Y          
                                                                                                             
 bn3d_branch2b (BatchNormal  (None, 28, 28, 128)          512       ['res3d_branch2b[0][0]']      Y          
 ization)                                                                                                    
                                                                                                             
 activation_20 (Activation)  (None, 28, 28, 128)          0         ['bn3d_branch2b[0][0]']       Y          
                                                                                                             
 dropout_16 (Dropout)        (None, 28, 28, 128)          0         ['activation_20[0][0]']       Y          
                                                                                                             
 res3d_branch2c (Conv2D)     (None, 28, 28, 512)          65536     ['dropout_16[0][0]']          Y          
                                                                                                             
 bn3d_branch2c (BatchNormal  (None, 28, 28, 512)          2048      ['res3d_branch2c[0][0]']      Y          
 ization)                                                                                                    
                                                                                                             
 add_6 (Add)                 (None, 28, 28, 512)          0         ['bn3d_branch2c[0][0]',       Y          
                                                                     'activation_18[0][0]']                  
                                                                                                             
 activation_21 (Activation)  (None, 28, 28, 512)          0         ['add_6[0][0]']               Y          
                                                                                                             
 res4a_branch2a (Conv2D)     (None, 28, 28, 256)          131072    ['activation_21[0][0]']       Y          
                                                                                                             
 bn4a_branch2a (BatchNormal  (None, 28, 28, 256)          1024      ['res4a_branch2a[0][0]']      Y          
 ization)                                                                                                    
                                                                                                             
 activation_22 (Activation)  (None, 28, 28, 256)          0         ['bn4a_branch2a[0][0]']       Y          
                                                                                                             
 dropout_17 (Dropout)        (None, 28, 28, 256)          0         ['activation_22[0][0]']       Y          
                                                                                                             
 res4a_branch2b (Conv2D)     (None, 14, 14, 256)          589824    ['dropout_17[0][0]']          Y          
                                                                                                             
 bn4a_branch2b (BatchNormal  (None, 14, 14, 256)          1024      ['res4a_branch2b[0][0]']      Y          
 ization)                                                                                                    
                                                                                                             
 activation_23 (Activation)  (None, 14, 14, 256)          0         ['bn4a_branch2b[0][0]']       Y          
                                                                                                             
 dropout_18 (Dropout)        (None, 14, 14, 256)          0         ['activation_23[0][0]']       Y          
                                                                                                             
 res4a_branch1 (Conv2D)      (None, 14, 14, 1024)         524288    ['activation_21[0][0]']       Y          
                                                                                                             
 res4a_branch2c (Conv2D)     (None, 14, 14, 1024)         262144    ['dropout_18[0][0]']          Y          
                                                                                                             
 bn4a_branch1 (BatchNormali  (None, 14, 14, 1024)         4096      ['res4a_branch1[0][0]']       Y          
 zation)                                                                                                     
                                                                                                             
 bn4a_branch2c (BatchNormal  (None, 14, 14, 1024)         4096      ['res4a_branch2c[0][0]']      Y          
 ization)                                                                                                    
                                                                                                             
 dropout_19 (Dropout)        (None, 14, 14, 1024)         0         ['bn4a_branch1[0][0]']        Y          
                                                                                                             
 add_7 (Add)                 (None, 14, 14, 1024)         0         ['bn4a_branch2c[0][0]',       Y          
                                                                     'dropout_19[0][0]']                     
                                                                                                             
 activation_24 (Activation)  (None, 14, 14, 1024)         0         ['add_7[0][0]']               Y          
                                                                                                             
 res4b_branch2a (Conv2D)     (None, 14, 14, 256)          262144    ['activation_24[0][0]']       Y          
                                                                                                             
 bn4b_branch2a (BatchNormal  (None, 14, 14, 256)          1024      ['res4b_branch2a[0][0]']      Y          
 ization)                                                                                                    
                                                                                                             
 activation_25 (Activation)  (None, 14, 14, 256)          0         ['bn4b_branch2a[0][0]']       Y          
                                                                                                             
 dropout_20 (Dropout)        (None, 14, 14, 256)          0         ['activation_25[0][0]']       Y          
                                                                                                             
 res4b_branch2b (Conv2D)     (None, 14, 14, 256)          589824    ['dropout_20[0][0]']          Y          
                                                                                                             
 bn4b_branch2b (BatchNormal  (None, 14, 14, 256)          1024      ['res4b_branch2b[0][0]']      Y          
 ization)                                                                                                    
                                                                                                             
 activation_26 (Activation)  (None, 14, 14, 256)          0         ['bn4b_branch2b[0][0]']       Y          
                                                                                                             
 dropout_21 (Dropout)        (None, 14, 14, 256)          0         ['activation_26[0][0]']       Y          
                                                                                                             
 res4b_branch2c (Conv2D)     (None, 14, 14, 1024)         262144    ['dropout_21[0][0]']          Y          
                                                                                                             
 bn4b_branch2c (BatchNormal  (None, 14, 14, 1024)         4096      ['res4b_branch2c[0][0]']      Y          
 ization)                                                                                                    
                                                                                                             
 add_8 (Add)                 (None, 14, 14, 1024)         0         ['bn4b_branch2c[0][0]',       Y          
                                                                     'activation_24[0][0]']                  
                                                                                                             
 activation_27 (Activation)  (None, 14, 14, 1024)         0         ['add_8[0][0]']               Y          
                                                                                                             
 res4c_branch2a (Conv2D)     (None, 14, 14, 256)          262144    ['activation_27[0][0]']       Y          
                                                                                                             
 bn4c_branch2a (BatchNormal  (None, 14, 14, 256)          1024      ['res4c_branch2a[0][0]']      Y          
 ization)                                                                                                    
                                                                                                             
 activation_28 (Activation)  (None, 14, 14, 256)          0         ['bn4c_branch2a[0][0]']       Y          
                                                                                                             
 dropout_22 (Dropout)        (None, 14, 14, 256)          0         ['activation_28[0][0]']       Y          
                                                                                                             
 res4c_branch2b (Conv2D)     (None, 14, 14, 256)          589824    ['dropout_22[0][0]']          Y          
                                                                                                             
 bn4c_branch2b (BatchNormal  (None, 14, 14, 256)          1024      ['res4c_branch2b[0][0]']      Y          
 ization)                                                                                                    
                                                                                                             
 activation_29 (Activation)  (None, 14, 14, 256)          0         ['bn4c_branch2b[0][0]']       Y          
                                                                                                             
 dropout_23 (Dropout)        (None, 14, 14, 256)          0         ['activation_29[0][0]']       Y          
                                                                                                             
 res4c_branch2c (Conv2D)     (None, 14, 14, 1024)         262144    ['dropout_23[0][0]']          Y          
                                                                                                             
 bn4c_branch2c (BatchNormal  (None, 14, 14, 1024)         4096      ['res4c_branch2c[0][0]']      Y          
 ization)                                                                                                    
                                                                                                             
 add_9 (Add)                 (None, 14, 14, 1024)         0         ['bn4c_branch2c[0][0]',       Y          
                                                                     'activation_27[0][0]']                  
                                                                                                             
 activation_30 (Activation)  (None, 14, 14, 1024)         0         ['add_9[0][0]']               Y          
                                                                                                             
 res4d_branch2a (Conv2D)     (None, 14, 14, 256)          262144    ['activation_30[0][0]']       Y          
                                                                                                             
 bn4d_branch2a (BatchNormal  (None, 14, 14, 256)          1024      ['res4d_branch2a[0][0]']      Y          
 ization)                                                                                                    
                                                                                                             
 activation_31 (Activation)  (None, 14, 14, 256)          0         ['bn4d_branch2a[0][0]']       Y          
                                                                                                             
 dropout_24 (Dropout)        (None, 14, 14, 256)          0         ['activation_31[0][0]']       Y          
                                                                                                             
 res4d_branch2b (Conv2D)     (None, 14, 14, 256)          589824    ['dropout_24[0][0]']          Y          
                                                                                                             
 bn4d_branch2b (BatchNormal  (None, 14, 14, 256)          1024      ['res4d_branch2b[0][0]']      Y          
 ization)                                                                                                    
                                                                                                             
 activation_32 (Activation)  (None, 14, 14, 256)          0         ['bn4d_branch2b[0][0]']       Y          
                                                                                                             
 dropout_25 (Dropout)        (None, 14, 14, 256)          0         ['activation_32[0][0]']       Y          
                                                                                                             
 res4d_branch2c (Conv2D)     (None, 14, 14, 1024)         262144    ['dropout_25[0][0]']          Y          
                                                                                                             
 bn4d_branch2c (BatchNormal  (None, 14, 14, 1024)         4096      ['res4d_branch2c[0][0]']      Y          
 ization)                                                                                                    
                                                                                                             
 add_10 (Add)                (None, 14, 14, 1024)         0         ['bn4d_branch2c[0][0]',       Y          
                                                                     'activation_30[0][0]']                  
                                                                                                             
 activation_33 (Activation)  (None, 14, 14, 1024)         0         ['add_10[0][0]']              Y          
                                                                                                             
 res4e_branch2a (Conv2D)     (None, 14, 14, 256)          262144    ['activation_33[0][0]']       Y          
                                                                                                             
 bn4e_branch2a (BatchNormal  (None, 14, 14, 256)          1024      ['res4e_branch2a[0][0]']      Y          
 ization)                                                                                                    
                                                                                                             
 activation_34 (Activation)  (None, 14, 14, 256)          0         ['bn4e_branch2a[0][0]']       Y          
                                                                                                             
 dropout_26 (Dropout)        (None, 14, 14, 256)          0         ['activation_34[0][0]']       Y          
                                                                                                             
 res4e_branch2b (Conv2D)     (None, 14, 14, 256)          589824    ['dropout_26[0][0]']          Y          
                                                                                                             
 bn4e_branch2b (BatchNormal  (None, 14, 14, 256)          1024      ['res4e_branch2b[0][0]']      Y          
 ization)                                                                                                    
                                                                                                             
 activation_35 (Activation)  (None, 14, 14, 256)          0         ['bn4e_branch2b[0][0]']       Y          
                                                                                                             
 dropout_27 (Dropout)        (None, 14, 14, 256)          0         ['activation_35[0][0]']       Y          
                                                                                                             
 res4e_branch2c (Conv2D)     (None, 14, 14, 1024)         262144    ['dropout_27[0][0]']          Y          
                                                                                                             
 bn4e_branch2c (BatchNormal  (None, 14, 14, 1024)         4096      ['res4e_branch2c[0][0]']      Y          
 ization)                                                                                                    
                                                                                                             
 add_11 (Add)                (None, 14, 14, 1024)         0         ['bn4e_branch2c[0][0]',       Y          
                                                                     'activation_33[0][0]']                  
                                                                                                             
 activation_36 (Activation)  (None, 14, 14, 1024)         0         ['add_11[0][0]']              Y          
                                                                                                             
 res4f_branch2a (Conv2D)     (None, 14, 14, 256)          262144    ['activation_36[0][0]']       Y          
                                                                                                             
 bn4f_branch2a (BatchNormal  (None, 14, 14, 256)          1024      ['res4f_branch2a[0][0]']      Y          
 ization)                                                                                                    
                                                                                                             
 activation_37 (Activation)  (None, 14, 14, 256)          0         ['bn4f_branch2a[0][0]']       Y          
                                                                                                             
 dropout_28 (Dropout)        (None, 14, 14, 256)          0         ['activation_37[0][0]']       Y          
                                                                                                             
 res4f_branch2b (Conv2D)     (None, 14, 14, 256)          589824    ['dropout_28[0][0]']          Y          
                                                                                                             
 bn4f_branch2b (BatchNormal  (None, 14, 14, 256)          1024      ['res4f_branch2b[0][0]']      Y          
 ization)                                                                                                    
                                                                                                             
 activation_38 (Activation)  (None, 14, 14, 256)          0         ['bn4f_branch2b[0][0]']       Y          
                                                                                                             
 dropout_29 (Dropout)        (None, 14, 14, 256)          0         ['activation_38[0][0]']       Y          
                                                                                                             
 res4f_branch2c (Conv2D)     (None, 14, 14, 1024)         262144    ['dropout_29[0][0]']          Y          
                                                                                                             
 bn4f_branch2c (BatchNormal  (None, 14, 14, 1024)         4096      ['res4f_branch2c[0][0]']      Y          
 ization)                                                                                                    
                                                                                                             
 add_12 (Add)                (None, 14, 14, 1024)         0         ['bn4f_branch2c[0][0]',       Y          
                                                                     'activation_36[0][0]']                  
                                                                                                             
 activation_39 (Activation)  (None, 14, 14, 1024)         0         ['add_12[0][0]']              Y          
                                                                                                             
 res5a_branch2a (Conv2D)     (None, 14, 14, 512)          524288    ['activation_39[0][0]']       Y          
                                                                                                             
 bn5a_branch2a (BatchNormal  (None, 14, 14, 512)          2048      ['res5a_branch2a[0][0]']      Y          
 ization)                                                                                                    
                                                                                                             
 activation_40 (Activation)  (None, 14, 14, 512)          0         ['bn5a_branch2a[0][0]']       Y          
                                                                                                             
 dropout_30 (Dropout)        (None, 14, 14, 512)          0         ['activation_40[0][0]']       Y          
                                                                                                             
 res5a_branch2b (Conv2D)     (None, 7, 7, 512)            2359296   ['dropout_30[0][0]']          Y          
                                                                                                             
 bn5a_branch2b (BatchNormal  (None, 7, 7, 512)            2048      ['res5a_branch2b[0][0]']      Y          
 ization)                                                                                                    
                                                                                                             
 activation_41 (Activation)  (None, 7, 7, 512)            0         ['bn5a_branch2b[0][0]']       Y          
                                                                                                             
 dropout_31 (Dropout)        (None, 7, 7, 512)            0         ['activation_41[0][0]']       Y          
                                                                                                             
 res5a_branch1 (Conv2D)      (None, 7, 7, 2048)           2097152   ['activation_39[0][0]']       Y          
                                                                                                             
 res5a_branch2c (Conv2D)     (None, 7, 7, 2048)           1048576   ['dropout_31[0][0]']          Y          
                                                                                                             
 bn5a_branch1 (BatchNormali  (None, 7, 7, 2048)           8192      ['res5a_branch1[0][0]']       Y          
 zation)                                                                                                     
                                                                                                             
 bn5a_branch2c (BatchNormal  (None, 7, 7, 2048)           8192      ['res5a_branch2c[0][0]']      Y          
 ization)                                                                                                    
                                                                                                             
 dropout_32 (Dropout)        (None, 7, 7, 2048)           0         ['bn5a_branch1[0][0]']        Y          
                                                                                                             
 add_13 (Add)                (None, 7, 7, 2048)           0         ['bn5a_branch2c[0][0]',       Y          
                                                                     'dropout_32[0][0]']                     
                                                                                                             
 activation_42 (Activation)  (None, 7, 7, 2048)           0         ['add_13[0][0]']              Y          
                                                                                                             
 res5b_branch2a (Conv2D)     (None, 7, 7, 512)            1048576   ['activation_42[0][0]']       Y          
                                                                                                             
 bn5b_branch2a (BatchNormal  (None, 7, 7, 512)            2048      ['res5b_branch2a[0][0]']      Y          
 ization)                                                                                                    
                                                                                                             
 activation_43 (Activation)  (None, 7, 7, 512)            0         ['bn5b_branch2a[0][0]']       Y          
                                                                                                             
 dropout_33 (Dropout)        (None, 7, 7, 512)            0         ['activation_43[0][0]']       Y          
                                                                                                             
 res5b_branch2b (Conv2D)     (None, 7, 7, 512)            2359296   ['dropout_33[0][0]']          Y          
                                                                                                             
 bn5b_branch2b (BatchNormal  (None, 7, 7, 512)            2048      ['res5b_branch2b[0][0]']      Y          
 ization)                                                                                                    
                                                                                                             
 activation_44 (Activation)  (None, 7, 7, 512)            0         ['bn5b_branch2b[0][0]']       Y          
                                                                                                             
 dropout_34 (Dropout)        (None, 7, 7, 512)            0         ['activation_44[0][0]']       Y          
                                                                                                             
 res5b_branch2c (Conv2D)     (None, 7, 7, 2048)           1048576   ['dropout_34[0][0]']          Y          
                                                                                                             
 bn5b_branch2c (BatchNormal  (None, 7, 7, 2048)           8192      ['res5b_branch2c[0][0]']      Y          
 ization)                                                                                                    
                                                                                                             
 add_14 (Add)                (None, 7, 7, 2048)           0         ['bn5b_branch2c[0][0]',       Y          
                                                                     'activation_42[0][0]']                  
                                                                                                             
 activation_45 (Activation)  (None, 7, 7, 2048)           0         ['add_14[0][0]']              Y          
                                                                                                             
 res5c_branch2a (Conv2D)     (None, 7, 7, 512)            1048576   ['activation_45[0][0]']       Y          
                                                                                                             
 bn5c_branch2a (BatchNormal  (None, 7, 7, 512)            2048      ['res5c_branch2a[0][0]']      Y          
 ization)                                                                                                    
                                                                                                             
 activation_46 (Activation)  (None, 7, 7, 512)            0         ['bn5c_branch2a[0][0]']       Y          
                                                                                                             
 dropout_35 (Dropout)        (None, 7, 7, 512)            0         ['activation_46[0][0]']       Y          
                                                                                                             
 res5c_branch2b (Conv2D)     (None, 7, 7, 512)            2359296   ['dropout_35[0][0]']          Y          
                                                                                                             
 bn5c_branch2b (BatchNormal  (None, 7, 7, 512)            2048      ['res5c_branch2b[0][0]']      Y          
 ization)                                                                                                    
                                                                                                             
 activation_47 (Activation)  (None, 7, 7, 512)            0         ['bn5c_branch2b[0][0]']       Y          
                                                                                                             
 dropout_36 (Dropout)        (None, 7, 7, 512)            0         ['activation_47[0][0]']       Y          
                                                                                                             
 res5c_branch2c (Conv2D)     (None, 7, 7, 2048)           1048576   ['dropout_36[0][0]']          Y          
                                                                                                             
 bn5c_branch2c (BatchNormal  (None, 7, 7, 2048)           8192      ['res5c_branch2c[0][0]']      Y          
 ization)                                                                                                    
                                                                                                             
 add_15 (Add)                (None, 7, 7, 2048)           0         ['bn5c_branch2c[0][0]',       Y          
                                                                     'activation_45[0][0]']                  
                                                                                                             
 activation_48 (Activation)  (None, 7, 7, 2048)           0         ['add_15[0][0]']              Y          
                                                                                                             
 avg_pool (GlobalAveragePoo  (None, 2048)                 0         ['activation_48[0][0]']       Y          
 ling2D)                                                                                                     
                                                                                                             
 fc1000 (Dense)              (None, 1000)                 2049000   ['avg_pool[0][0]']            Y          
                                                                                                             
=============================================================================================================
Total params: 25610152 (97.69 MB)
Trainable params: 25557032 (97.49 MB)
Non-trainable params: 53120 (207.50 KB)
_____________________________________________________________________________________________________________
…
Model summary before fine tuning: 
Model: "model_1"
_____________________________________________________________________________________________________________
 Layer (type)                Output Shape                 Param #   Connected to                  Trainable  
=============================================================================================================
 input_1 (InputLayer)        [(None, 224, 224, 3)]        0         []                            N          
                                                                                                             
 conv1_pad (ZeroPadding2D)   (None, 230, 230, 3)          0         ['input_1[0][0]']             N          
                                                                                                             
 conv1 (Conv2D)              (None, 112, 112, 64)         9408      ['conv1_pad[0][0]']           N          
                                                                                                             
 bn_conv1 (BatchNormalizati  (None, 112, 112, 64)         256       ['conv1[0][0]']               N          
 on)                                                                                                         
                                                                                                             
 activation (Activation)     (None, 112, 112, 64)         0         ['bn_conv1[0][0]']            N          
                                                                                                             
 dropout (Dropout)           (None, 112, 112, 64)         0         ['activation[0][0]']          N          
                                                                                                             
 max_pooling2d (MaxPooling2  (None, 56, 56, 64)           0         ['dropout[0][0]']             N          
 D)                                                                                                          
                                                                                                             
 res2a_branch2a (Conv2D)     (None, 56, 56, 64)           4096      ['max_pooling2d[0][0]']       N          
                                                                                                             
 bn2a_branch2a (BatchNormal  (None, 56, 56, 64)           256       ['res2a_branch2a[0][0]']      N          
 ization)                                                                                                    
                                                                                                             
 activation_1 (Activation)   (None, 56, 56, 64)           0         ['bn2a_branch2a[0][0]']       N          
                                                                                                             
 dropout_1 (Dropout)         (None, 56, 56, 64)           0         ['activation_1[0][0]']        N          
                                                                                                             
 res2a_branch2b (Conv2D)     (None, 56, 56, 64)           36864     ['dropout_1[0][0]']           N          
                                                                                                             
 bn2a_branch2b (BatchNormal  (None, 56, 56, 64)           256       ['res2a_branch2b[0][0]']      N          
 ization)                                                                                                    
                                                                                                             
 activation_2 (Activation)   (None, 56, 56, 64)           0         ['bn2a_branch2b[0][0]']       N          
                                                                                                             
 dropout_2 (Dropout)         (None, 56, 56, 64)           0         ['activation_2[0][0]']        N          
                                                                                                             
 res2a_branch1 (Conv2D)      (None, 56, 56, 256)          16384     ['max_pooling2d[0][0]']       N          
                                                                                                             
 res2a_branch2c (Conv2D)     (None, 56, 56, 256)          16384     ['dropout_2[0][0]']           N          
                                                                                                             
 bn2a_branch1 (BatchNormali  (None, 56, 56, 256)          1024      ['res2a_branch1[0][0]']       N          
 zation)                                                                                                     
                                                                                                             
 bn2a_branch2c (BatchNormal  (None, 56, 56, 256)          1024      ['res2a_branch2c[0][0]']      N          
 ization)                                                                                                    
                                                                                                             
 dropout_3 (Dropout)         (None, 56, 56, 256)          0         ['bn2a_branch1[0][0]']        N          
                                                                                                             
 add (Add)                   (None, 56, 56, 256)          0         ['bn2a_branch2c[0][0]',       N          
                                                                     'dropout_3[0][0]']                      
                                                                                                             
 activation_3 (Activation)   (None, 56, 56, 256)          0         ['add[0][0]']                 N          
                                                                                                             
 res2b_branch2a (Conv2D)     (None, 56, 56, 64)           16384     ['activation_3[0][0]']        N          
                                                                                                             
 bn2b_branch2a (BatchNormal  (None, 56, 56, 64)           256       ['res2b_branch2a[0][0]']      N          
 ization)                                                                                                    
                                                                                                             
 activation_4 (Activation)   (None, 56, 56, 64)           0         ['bn2b_branch2a[0][0]']       N          
                                                                                                             
 dropout_4 (Dropout)         (None, 56, 56, 64)           0         ['activation_4[0][0]']        N          
                                                                                                             
 res2b_branch2b (Conv2D)     (None, 56, 56, 64)           36864     ['dropout_4[0][0]']           N          
                                                                                                             
 bn2b_branch2b (BatchNormal  (None, 56, 56, 64)           256       ['res2b_branch2b[0][0]']      N          
 ization)                                                                                                    
                                                                                                             
 activation_5 (Activation)   (None, 56, 56, 64)           0         ['bn2b_branch2b[0][0]']       N          
                                                                                                             
 dropout_5 (Dropout)         (None, 56, 56, 64)           0         ['activation_5[0][0]']        N          
                                                                                                             
 res2b_branch2c (Conv2D)     (None, 56, 56, 256)          16384     ['dropout_5[0][0]']           N          
                                                                                                             
 bn2b_branch2c (BatchNormal  (None, 56, 56, 256)          1024      ['res2b_branch2c[0][0]']      N          
 ization)                                                                                                    
                                                                                                             
 add_1 (Add)                 (None, 56, 56, 256)          0         ['bn2b_branch2c[0][0]',       N          
                                                                     'activation_3[0][0]']                   
                                                                                                             
 activation_6 (Activation)   (None, 56, 56, 256)          0         ['add_1[0][0]']               N          
                                                                                                             
 res2c_branch2a (Conv2D)     (None, 56, 56, 64)           16384     ['activation_6[0][0]']        N          
                                                                                                             
 bn2c_branch2a (BatchNormal  (None, 56, 56, 64)           256       ['res2c_branch2a[0][0]']      N          
 ization)                                                                                                    
                                                                                                             
 activation_7 (Activation)   (None, 56, 56, 64)           0         ['bn2c_branch2a[0][0]']       N          
                                                                                                             
 dropout_6 (Dropout)         (None, 56, 56, 64)           0         ['activation_7[0][0]']        N          
                                                                                                             
 res2c_branch2b (Conv2D)     (None, 56, 56, 64)           36864     ['dropout_6[0][0]']           N          
                                                                                                             
 bn2c_branch2b (BatchNormal  (None, 56, 56, 64)           256       ['res2c_branch2b[0][0]']      N          
 ization)                                                                                                    
                                                                                                             
 activation_8 (Activation)   (None, 56, 56, 64)           0         ['bn2c_branch2b[0][0]']       N          
                                                                                                             
 dropout_7 (Dropout)         (None, 56, 56, 64)           0         ['activation_8[0][0]']        N          
                                                                                                             
 res2c_branch2c (Conv2D)     (None, 56, 56, 256)          16384     ['dropout_7[0][0]']           N          
                                                                                                             
 bn2c_branch2c (BatchNormal  (None, 56, 56, 256)          1024      ['res2c_branch2c[0][0]']      N          
 ization)                                                                                                    
                                                                                                             
 add_2 (Add)                 (None, 56, 56, 256)          0         ['bn2c_branch2c[0][0]',       N          
                                                                     'activation_6[0][0]']                   
                                                                                                             
 activation_9 (Activation)   (None, 56, 56, 256)          0         ['add_2[0][0]']               N          
                                                                                                             
 res3a_branch2a (Conv2D)     (None, 56, 56, 128)          32768     ['activation_9[0][0]']        N          
                                                                                                             
 bn3a_branch2a (BatchNormal  (None, 56, 56, 128)          512       ['res3a_branch2a[0][0]']      N          
 ization)                                                                                                    
                                                                                                             
 activation_10 (Activation)  (None, 56, 56, 128)          0         ['bn3a_branch2a[0][0]']       N          
                                                                                                             
 dropout_8 (Dropout)         (None, 56, 56, 128)          0         ['activation_10[0][0]']       N          
                                                                                                             
 res3a_branch2b (Conv2D)     (None, 28, 28, 128)          147456    ['dropout_8[0][0]']           N          
                                                                                                             
 bn3a_branch2b (BatchNormal  (None, 28, 28, 128)          512       ['res3a_branch2b[0][0]']      N          
 ization)                                                                                                    
                                                                                                             
 activation_11 (Activation)  (None, 28, 28, 128)          0         ['bn3a_branch2b[0][0]']       N          
                                                                                                             
 dropout_9 (Dropout)         (None, 28, 28, 128)          0         ['activation_11[0][0]']       N          
                                                                                                             
 res3a_branch1 (Conv2D)      (None, 28, 28, 512)          131072    ['activation_9[0][0]']        N          
                                                                                                             
 res3a_branch2c (Conv2D)     (None, 28, 28, 512)          65536     ['dropout_9[0][0]']           N          
                                                                                                             
 bn3a_branch1 (BatchNormali  (None, 28, 28, 512)          2048      ['res3a_branch1[0][0]']       N          
 zation)                                                                                                     
                                                                                                             
 bn3a_branch2c (BatchNormal  (None, 28, 28, 512)          2048      ['res3a_branch2c[0][0]']      N          
 ization)                                                                                                    
                                                                                                             
 dropout_10 (Dropout)        (None, 28, 28, 512)          0         ['bn3a_branch1[0][0]']        N          
                                                                                                             
 add_3 (Add)                 (None, 28, 28, 512)          0         ['bn3a_branch2c[0][0]',       N          
                                                                     'dropout_10[0][0]']                     
                                                                                                             
 activation_12 (Activation)  (None, 28, 28, 512)          0         ['add_3[0][0]']               N          
                                                                                                             
 res3b_branch2a (Conv2D)     (None, 28, 28, 128)          65536     ['activation_12[0][0]']       N          
                                                                                                             
 bn3b_branch2a (BatchNormal  (None, 28, 28, 128)          512       ['res3b_branch2a[0][0]']      N          
 ization)                                                                                                    
                                                                                                             
 activation_13 (Activation)  (None, 28, 28, 128)          0         ['bn3b_branch2a[0][0]']       N          
                                                                                                             
 dropout_11 (Dropout)        (None, 28, 28, 128)          0         ['activation_13[0][0]']       N          
                                                                                                             
 res3b_branch2b (Conv2D)     (None, 28, 28, 128)          147456    ['dropout_11[0][0]']          N          
                                                                                                             
 bn3b_branch2b (BatchNormal  (None, 28, 28, 128)          512       ['res3b_branch2b[0][0]']      N          
 ization)                                                                                                    
                                                                                                             
 activation_14 (Activation)  (None, 28, 28, 128)          0         ['bn3b_branch2b[0][0]']       N          
                                                                                                             
 dropout_12 (Dropout)        (None, 28, 28, 128)          0         ['activation_14[0][0]']       N          
                                                                                                             
 res3b_branch2c (Conv2D)     (None, 28, 28, 512)          65536     ['dropout_12[0][0]']          N          
                                                                                                             
 bn3b_branch2c (BatchNormal  (None, 28, 28, 512)          2048      ['res3b_branch2c[0][0]']      N          
 ization)                                                                                                    
                                                                                                             
 add_4 (Add)                 (None, 28, 28, 512)          0         ['bn3b_branch2c[0][0]',       N          
                                                                     'activation_12[0][0]']                  
                                                                                                             
 activation_15 (Activation)  (None, 28, 28, 512)          0         ['add_4[0][0]']               N          
                                                                                                             
 res3c_branch2a (Conv2D)     (None, 28, 28, 128)          65536     ['activation_15[0][0]']       N          
                                                                                                             
 bn3c_branch2a (BatchNormal  (None, 28, 28, 128)          512       ['res3c_branch2a[0][0]']      N          
 ization)                                                                                                    
                                                                                                             
 activation_16 (Activation)  (None, 28, 28, 128)          0         ['bn3c_branch2a[0][0]']       N          
                                                                                                             
 dropout_13 (Dropout)        (None, 28, 28, 128)          0         ['activation_16[0][0]']       N          
                                                                                                             
 res3c_branch2b (Conv2D)     (None, 28, 28, 128)          147456    ['dropout_13[0][0]']          N          
                                                                                                             
 bn3c_branch2b (BatchNormal  (None, 28, 28, 128)          512       ['res3c_branch2b[0][0]']      N          
 ization)                                                                                                    
                                                                                                             
 activation_17 (Activation)  (None, 28, 28, 128)          0         ['bn3c_branch2b[0][0]']       N          
                                                                                                             
 dropout_14 (Dropout)        (None, 28, 28, 128)          0         ['activation_17[0][0]']       N          
                                                                                                             
 res3c_branch2c (Conv2D)     (None, 28, 28, 512)          65536     ['dropout_14[0][0]']          N          
                                                                                                             
 bn3c_branch2c (BatchNormal  (None, 28, 28, 512)          2048      ['res3c_branch2c[0][0]']      N          
 ization)                                                                                                    
                                                                                                             
 add_5 (Add)                 (None, 28, 28, 512)          0         ['bn3c_branch2c[0][0]',       N          
                                                                     'activation_15[0][0]']                  
                                                                                                             
 activation_18 (Activation)  (None, 28, 28, 512)          0         ['add_5[0][0]']               N          
                                                                                                             
 res3d_branch2a (Conv2D)     (None, 28, 28, 128)          65536     ['activation_18[0][0]']       N          
                                                                                                             
 bn3d_branch2a (BatchNormal  (None, 28, 28, 128)          512       ['res3d_branch2a[0][0]']      N          
 ization)                                                                                                    
                                                                                                             
 activation_19 (Activation)  (None, 28, 28, 128)          0         ['bn3d_branch2a[0][0]']       N          
                                                                                                             
 dropout_15 (Dropout)        (None, 28, 28, 128)          0         ['activation_19[0][0]']       N          
                                                                                                             
 res3d_branch2b (Conv2D)     (None, 28, 28, 128)          147456    ['dropout_15[0][0]']          N          
                                                                                                             
 bn3d_branch2b (BatchNormal  (None, 28, 28, 128)          512       ['res3d_branch2b[0][0]']      N          
 ization)                                                                                                    
                                                                                                             
 activation_20 (Activation)  (None, 28, 28, 128)          0         ['bn3d_branch2b[0][0]']       N          
                                                                                                             
 dropout_16 (Dropout)        (None, 28, 28, 128)          0         ['activation_20[0][0]']       N          
                                                                                                             
 res3d_branch2c (Conv2D)     (None, 28, 28, 512)          65536     ['dropout_16[0][0]']          N          
                                                                                                             
 bn3d_branch2c (BatchNormal  (None, 28, 28, 512)          2048      ['res3d_branch2c[0][0]']      N          
 ization)                                                                                                    
                                                                                                             
 add_6 (Add)                 (None, 28, 28, 512)          0         ['bn3d_branch2c[0][0]',       N          
                                                                     'activation_18[0][0]']                  
                                                                                                             
 activation_21 (Activation)  (None, 28, 28, 512)          0         ['add_6[0][0]']               N          
                                                                                                             
 res4a_branch2a (Conv2D)     (None, 28, 28, 256)          131072    ['activation_21[0][0]']       N          
                                                                                                             
 bn4a_branch2a (BatchNormal  (None, 28, 28, 256)          1024      ['res4a_branch2a[0][0]']      N          
 ization)                                                                                                    
                                                                                                             
 activation_22 (Activation)  (None, 28, 28, 256)          0         ['bn4a_branch2a[0][0]']       N          
                                                                                                             
 dropout_17 (Dropout)        (None, 28, 28, 256)          0         ['activation_22[0][0]']       N          
                                                                                                             
 res4a_branch2b (Conv2D)     (None, 14, 14, 256)          589824    ['dropout_17[0][0]']          N          
                                                                                                             
 bn4a_branch2b (BatchNormal  (None, 14, 14, 256)          1024      ['res4a_branch2b[0][0]']      N          
 ization)                                                                                                    
                                                                                                             
 activation_23 (Activation)  (None, 14, 14, 256)          0         ['bn4a_branch2b[0][0]']       N          
                                                                                                             
 dropout_18 (Dropout)        (None, 14, 14, 256)          0         ['activation_23[0][0]']       N          
                                                                                                             
 res4a_branch1 (Conv2D)      (None, 14, 14, 1024)         524288    ['activation_21[0][0]']       N          
                                                                                                             
 res4a_branch2c (Conv2D)     (None, 14, 14, 1024)         262144    ['dropout_18[0][0]']          N          
                                                                                                             
 bn4a_branch1 (BatchNormali  (None, 14, 14, 1024)         4096      ['res4a_branch1[0][0]']       N          
 zation)                                                                                                     
                                                                                                             
 bn4a_branch2c (BatchNormal  (None, 14, 14, 1024)         4096      ['res4a_branch2c[0][0]']      N          
 ization)                                                                                                    
                                                                                                             
 dropout_19 (Dropout)        (None, 14, 14, 1024)         0         ['bn4a_branch1[0][0]']        N          
                                                                                                             
 add_7 (Add)                 (None, 14, 14, 1024)         0         ['bn4a_branch2c[0][0]',       N          
                                                                     'dropout_19[0][0]']                     
                                                                                                             
 activation_24 (Activation)  (None, 14, 14, 1024)         0         ['add_7[0][0]']               N          
                                                                                                             
 res4b_branch2a (Conv2D)     (None, 14, 14, 256)          262144    ['activation_24[0][0]']       N          
                                                                                                             
 bn4b_branch2a (BatchNormal  (None, 14, 14, 256)          1024      ['res4b_branch2a[0][0]']      N          
 ization)                                                                                                    
                                                                                                             
 activation_25 (Activation)  (None, 14, 14, 256)          0         ['bn4b_branch2a[0][0]']       N          
                                                                                                             
 dropout_20 (Dropout)        (None, 14, 14, 256)          0         ['activation_25[0][0]']       N          
                                                                                                             
 res4b_branch2b (Conv2D)     (None, 14, 14, 256)          589824    ['dropout_20[0][0]']          N          
                                                                                                             
 bn4b_branch2b (BatchNormal  (None, 14, 14, 256)          1024      ['res4b_branch2b[0][0]']      N          
 ization)                                                                                                    
                                                                                                             
 activation_26 (Activation)  (None, 14, 14, 256)          0         ['bn4b_branch2b[0][0]']       N          
                                                                                                             
 dropout_21 (Dropout)        (None, 14, 14, 256)          0         ['activation_26[0][0]']       N          
                                                                                                             
 res4b_branch2c (Conv2D)     (None, 14, 14, 1024)         262144    ['dropout_21[0][0]']          N          
                                                                                                             
 bn4b_branch2c (BatchNormal  (None, 14, 14, 1024)         4096      ['res4b_branch2c[0][0]']      N          
 ization)                                                                                                    
                                                                                                             
 add_8 (Add)                 (None, 14, 14, 1024)         0         ['bn4b_branch2c[0][0]',       N          
                                                                     'activation_24[0][0]']                  
                                                                                                             
 activation_27 (Activation)  (None, 14, 14, 1024)         0         ['add_8[0][0]']               N          
                                                                                                             
 res4c_branch2a (Conv2D)     (None, 14, 14, 256)          262144    ['activation_27[0][0]']       N          
                                                                                                             
 bn4c_branch2a (BatchNormal  (None, 14, 14, 256)          1024      ['res4c_branch2a[0][0]']      N          
 ization)                                                                                                    
                                                                                                             
 activation_28 (Activation)  (None, 14, 14, 256)          0         ['bn4c_branch2a[0][0]']       N          
                                                                                                             
 dropout_22 (Dropout)        (None, 14, 14, 256)          0         ['activation_28[0][0]']       N          
                                                                                                             
 res4c_branch2b (Conv2D)     (None, 14, 14, 256)          589824    ['dropout_22[0][0]']          N          
                                                                                                             
 bn4c_branch2b (BatchNormal  (None, 14, 14, 256)          1024      ['res4c_branch2b[0][0]']      N          
 ization)                                                                                                    
                                                                                                             
 activation_29 (Activation)  (None, 14, 14, 256)          0         ['bn4c_branch2b[0][0]']       N          
                                                                                                             
 dropout_23 (Dropout)        (None, 14, 14, 256)          0         ['activation_29[0][0]']       N          
                                                                                                             
 res4c_branch2c (Conv2D)     (None, 14, 14, 1024)         262144    ['dropout_23[0][0]']          N          
                                                                                                             
 bn4c_branch2c (BatchNormal  (None, 14, 14, 1024)         4096      ['res4c_branch2c[0][0]']      N          
 ization)                                                                                                    
                                                                                                             
 add_9 (Add)                 (None, 14, 14, 1024)         0         ['bn4c_branch2c[0][0]',       N          
                                                                     'activation_27[0][0]']                  
                                                                                                             
 activation_30 (Activation)  (None, 14, 14, 1024)         0         ['add_9[0][0]']               N          
                                                                                                             
 res4d_branch2a (Conv2D)     (None, 14, 14, 256)          262144    ['activation_30[0][0]']       N          
                                                                                                             
 bn4d_branch2a (BatchNormal  (None, 14, 14, 256)          1024      ['res4d_branch2a[0][0]']      N          
 ization)                                                                                                    
                                                                                                             
 activation_31 (Activation)  (None, 14, 14, 256)          0         ['bn4d_branch2a[0][0]']       N          
                                                                                                             
 dropout_24 (Dropout)        (None, 14, 14, 256)          0         ['activation_31[0][0]']       N          
                                                                                                             
 res4d_branch2b (Conv2D)     (None, 14, 14, 256)          589824    ['dropout_24[0][0]']          N          
                                                                                                             
 bn4d_branch2b (BatchNormal  (None, 14, 14, 256)          1024      ['res4d_branch2b[0][0]']      N          
 ization)                                                                                                    
                                                                                                             
 activation_32 (Activation)  (None, 14, 14, 256)          0         ['bn4d_branch2b[0][0]']       N          
                                                                                                             
 dropout_25 (Dropout)        (None, 14, 14, 256)          0         ['activation_32[0][0]']       N          
                                                                                                             
 res4d_branch2c (Conv2D)     (None, 14, 14, 1024)         262144    ['dropout_25[0][0]']          N          
                                                                                                             
 bn4d_branch2c (BatchNormal  (None, 14, 14, 1024)         4096      ['res4d_branch2c[0][0]']      N          
 ization)                                                                                                    
                                                                                                             
 add_10 (Add)                (None, 14, 14, 1024)         0         ['bn4d_branch2c[0][0]',       N          
                                                                     'activation_30[0][0]']                  
                                                                                                             
 activation_33 (Activation)  (None, 14, 14, 1024)         0         ['add_10[0][0]']              N          
                                                                                                             
 res4e_branch2a (Conv2D)     (None, 14, 14, 256)          262144    ['activation_33[0][0]']       N          
                                                                                                             
 bn4e_branch2a (BatchNormal  (None, 14, 14, 256)          1024      ['res4e_branch2a[0][0]']      N          
 ization)                                                                                                    
                                                                                                             
 activation_34 (Activation)  (None, 14, 14, 256)          0         ['bn4e_branch2a[0][0]']       N          
                                                                                                             
 dropout_26 (Dropout)        (None, 14, 14, 256)          0         ['activation_34[0][0]']       N          
                                                                                                             
 res4e_branch2b (Conv2D)     (None, 14, 14, 256)          589824    ['dropout_26[0][0]']          N          
                                                                                                             
 bn4e_branch2b (BatchNormal  (None, 14, 14, 256)          1024      ['res4e_branch2b[0][0]']      N          
 ization)                                                                                                    
                                                                                                             
 activation_35 (Activation)  (None, 14, 14, 256)          0         ['bn4e_branch2b[0][0]']       N          
                                                                                                             
 dropout_27 (Dropout)        (None, 14, 14, 256)          0         ['activation_35[0][0]']       N          
                                                                                                             
 res4e_branch2c (Conv2D)     (None, 14, 14, 1024)         262144    ['dropout_27[0][0]']          N          
                                                                                                             
 bn4e_branch2c (BatchNormal  (None, 14, 14, 1024)         4096      ['res4e_branch2c[0][0]']      N          
 ization)                                                                                                    
                                                                                                             
 add_11 (Add)                (None, 14, 14, 1024)         0         ['bn4e_branch2c[0][0]',       N          
                                                                     'activation_33[0][0]']                  
                                                                                                             
 activation_36 (Activation)  (None, 14, 14, 1024)         0         ['add_11[0][0]']              N          
                                                                                                             
 res4f_branch2a (Conv2D)     (None, 14, 14, 256)          262144    ['activation_36[0][0]']       N          
                                                                                                             
 bn4f_branch2a (BatchNormal  (None, 14, 14, 256)          1024      ['res4f_branch2a[0][0]']      N          
 ization)                                                                                                    
                                                                                                             
 activation_37 (Activation)  (None, 14, 14, 256)          0         ['bn4f_branch2a[0][0]']       N          
                                                                                                             
 dropout_28 (Dropout)        (None, 14, 14, 256)          0         ['activation_37[0][0]']       N          
                                                                                                             
 res4f_branch2b (Conv2D)     (None, 14, 14, 256)          589824    ['dropout_28[0][0]']          N          
                                                                                                             
 bn4f_branch2b (BatchNormal  (None, 14, 14, 256)          1024      ['res4f_branch2b[0][0]']      N          
 ization)                                                                                                    
                                                                                                             
 activation_38 (Activation)  (None, 14, 14, 256)          0         ['bn4f_branch2b[0][0]']       N          
                                                                                                             
 dropout_29 (Dropout)        (None, 14, 14, 256)          0         ['activation_38[0][0]']       N          
                                                                                                             
 res4f_branch2c (Conv2D)     (None, 14, 14, 1024)         262144    ['dropout_29[0][0]']          N          
                                                                                                             
 bn4f_branch2c (BatchNormal  (None, 14, 14, 1024)         4096      ['res4f_branch2c[0][0]']      N          
 ization)                                                                                                    
                                                                                                             
 add_12 (Add)                (None, 14, 14, 1024)         0         ['bn4f_branch2c[0][0]',       N          
                                                                     'activation_36[0][0]']                  
                                                                                                             
 activation_39 (Activation)  (None, 14, 14, 1024)         0         ['add_12[0][0]']              N          
                                                                                                             
 res5a_branch2a (Conv2D)     (None, 14, 14, 512)          524288    ['activation_39[0][0]']       N          
                                                                                                             
 bn5a_branch2a (BatchNormal  (None, 14, 14, 512)          2048      ['res5a_branch2a[0][0]']      N          
 ization)                                                                                                    
                                                                                                             
 activation_40 (Activation)  (None, 14, 14, 512)          0         ['bn5a_branch2a[0][0]']       N          
                                                                                                             
 dropout_30 (Dropout)        (None, 14, 14, 512)          0         ['activation_40[0][0]']       N          
                                                                                                             
 res5a_branch2b (Conv2D)     (None, 7, 7, 512)            2359296   ['dropout_30[0][0]']          N          
                                                                                                             
 bn5a_branch2b (BatchNormal  (None, 7, 7, 512)            2048      ['res5a_branch2b[0][0]']      N          
 ization)                                                                                                    
                                                                                                             
 activation_41 (Activation)  (None, 7, 7, 512)            0         ['bn5a_branch2b[0][0]']       N          
                                                                                                             
 dropout_31 (Dropout)        (None, 7, 7, 512)            0         ['activation_41[0][0]']       N          
                                                                                                             
 res5a_branch1 (Conv2D)      (None, 7, 7, 2048)           2097152   ['activation_39[0][0]']       N          
                                                                                                             
 res5a_branch2c (Conv2D)     (None, 7, 7, 2048)           1048576   ['dropout_31[0][0]']          N          
                                                                                                             
 bn5a_branch1 (BatchNormali  (None, 7, 7, 2048)           8192      ['res5a_branch1[0][0]']       N          
 zation)                                                                                                     
                                                                                                             
 bn5a_branch2c (BatchNormal  (None, 7, 7, 2048)           8192      ['res5a_branch2c[0][0]']      N          
 ization)                                                                                                    
                                                                                                             
 dropout_32 (Dropout)        (None, 7, 7, 2048)           0         ['bn5a_branch1[0][0]']        N          
                                                                                                             
 add_13 (Add)                (None, 7, 7, 2048)           0         ['bn5a_branch2c[0][0]',       N          
                                                                     'dropout_32[0][0]']                     
                                                                                                             
 activation_42 (Activation)  (None, 7, 7, 2048)           0         ['add_13[0][0]']              N          
                                                                                                             
 res5b_branch2a (Conv2D)     (None, 7, 7, 512)            1048576   ['activation_42[0][0]']       N          
                                                                                                             
 bn5b_branch2a (BatchNormal  (None, 7, 7, 512)            2048      ['res5b_branch2a[0][0]']      N          
 ization)                                                                                                    
                                                                                                             
 activation_43 (Activation)  (None, 7, 7, 512)            0         ['bn5b_branch2a[0][0]']       N          
                                                                                                             
 dropout_33 (Dropout)        (None, 7, 7, 512)            0         ['activation_43[0][0]']       N          
                                                                                                             
 res5b_branch2b (Conv2D)     (None, 7, 7, 512)            2359296   ['dropout_33[0][0]']          N          
                                                                                                             
 bn5b_branch2b (BatchNormal  (None, 7, 7, 512)            2048      ['res5b_branch2b[0][0]']      N          
 ization)                                                                                                    
                                                                                                             
 activation_44 (Activation)  (None, 7, 7, 512)            0         ['bn5b_branch2b[0][0]']       N          
                                                                                                             
 dropout_34 (Dropout)        (None, 7, 7, 512)            0         ['activation_44[0][0]']       N          
                                                                                                             
 res5b_branch2c (Conv2D)     (None, 7, 7, 2048)           1048576   ['dropout_34[0][0]']          N          
                                                                                                             
 bn5b_branch2c (BatchNormal  (None, 7, 7, 2048)           8192      ['res5b_branch2c[0][0]']      N          
 ization)                                                                                                    
                                                                                                             
 add_14 (Add)                (None, 7, 7, 2048)           0         ['bn5b_branch2c[0][0]',       N          
                                                                     'activation_42[0][0]']                  
                                                                                                             
 activation_45 (Activation)  (None, 7, 7, 2048)           0         ['add_14[0][0]']              N          
                                                                                                             
 res5c_branch2a (Conv2D)     (None, 7, 7, 512)            1048576   ['activation_45[0][0]']       N          
                                                                                                             
 bn5c_branch2a (BatchNormal  (None, 7, 7, 512)            2048      ['res5c_branch2a[0][0]']      N          
 ization)                                                                                                    
                                                                                                             
 activation_46 (Activation)  (None, 7, 7, 512)            0         ['bn5c_branch2a[0][0]']       N          
                                                                                                             
 dropout_35 (Dropout)        (None, 7, 7, 512)            0         ['activation_46[0][0]']       N          
                                                                                                             
 res5c_branch2b (Conv2D)     (None, 7, 7, 512)            2359296   ['dropout_35[0][0]']          N          
                                                                                                             
 bn5c_branch2b (BatchNormal  (None, 7, 7, 512)            2048      ['res5c_branch2b[0][0]']      N          
 ization)                                                                                                    
                                                                                                             
 activation_47 (Activation)  (None, 7, 7, 512)            0         ['bn5c_branch2b[0][0]']       N          
                                                                                                             
 dropout_36 (Dropout)        (None, 7, 7, 512)            0         ['activation_47[0][0]']       N          
                                                                                                             
 res5c_branch2c (Conv2D)     (None, 7, 7, 2048)           1048576   ['dropout_36[0][0]']          N          
                                                                                                             
 bn5c_branch2c (BatchNormal  (None, 7, 7, 2048)           8192      ['res5c_branch2c[0][0]']      N          
 ization)                                                                                                    
                                                                                                             
 add_15 (Add)                (None, 7, 7, 2048)           0         ['bn5c_branch2c[0][0]',       N          
                                                                     'activation_45[0][0]']                  
                                                                                                             
 activation_48 (Activation)  (None, 7, 7, 2048)           0         ['add_15[0][0]']              N          
                                                                                                             
 avg_pool (GlobalAveragePoo  (None, 2048)                 0         ['activation_48[0][0]']       N          
 ling2D)                                                                                                     
                                                                                                             
 dense (Dense)               (None, 80)                   163920    ['avg_pool[0][0]']            Y          
                                                                                                             
 dropout_37 (Dropout)        (None, 80)                   0         ['dense[0][0]']               Y          
                                                                                                             
 dense_1 (Dense)             (None, 80)                   6480      ['dropout_37[0][0]']          Y          
                                                                                                             
 class_head (Dense)          (None, 8)                    648       ['dense_1[0][0]']             Y          
                                                                                                             
=============================================================================================================
Total params: 23732200 (90.53 MB)
Trainable params: 171048 (668.16 KB)
Non-trainable params: 23561152 (89.88 MB)
_____________________________________________________________________________________________________________
…
