…
2023-08-13 07:39:14.657836: I tensorflow/core/common_runtime/gpu/gpu_device.cc:1886] Created device /job:localhost/replica:0/task:0/device:GPU:0 with 47193 MB memory:  -> device: 0, name: Quadro RTX 8000, pci bus id: 0000:1d:00.0, compute capability: 7.5
Found 1600 files belonging to 8 classes.
Found 800 files belonging to 8 classes.
Model: "model"
_________________________________________________________________
 Layer (type)                Output Shape              Param #   
=================================================================
 input_2 (InputLayer)        [(None, 299, 299, 3)]     0         
                                                                 
 random_flip (RandomFlip)    (None, 299, 299, 3)       0         
                                                                 
 random_rotation (RandomRot  (None, 299, 299, 3)       0         
 ation)                                                          
                                                                 
 random_brightness (RandomB  (None, 299, 299, 3)       0         
 rightness)                                                      
                                                                 
 random_contrast (RandomCon  (None, 299, 299, 3)       0         
 trast)                                                          
                                                                 
 tf.__operators__.getitem (  (None, 299, 299, 3)       0         
 SlicingOpLambda)                                                
                                                                 
 tf.nn.bias_add (TFOpLambda  (None, 299, 299, 3)       0         
 )                                                               
                                                                 
 resnet50 (Functional)       (None, 10, 10, 2048)      23587712  
                                                                 
 global_average_pooling2d (  (None, 2048)              0         
 GlobalAveragePooling2D)                                         
                                                                 
 dropout (Dropout)           (None, 2048)              0         
                                                                 
 dense_1 (Dense)             (None, 80)                163920    
                                                                 
 dense_2 (Dense)             (None, 80)                6480      
                                                                 
 dropout_1 (Dropout)         (None, 80)                0         
                                                                 
 dense (Dense)               (None, 8)                 648       
                                                                 
=================================================================
Total params: 23758760 (90.63 MB)
Trainable params: 171048 (668.16 KB)
Non-trainable params: 23587712 (89.98 MB)
_________________________________________________________________
Model summary before fine tuning: None
WARNING:tensorflow:`period` argument is deprecated. Please use `save_freq` to specify the frequency in number of batches seen.
…
